lstm_model.pth (torch, 167846 bytes, 5 tensors)

lstm.weight_ih_l0 f4 [400, 1]
-0.2518735 -0.2678427 -0.28310844 -0.108113304 0.11489462 -0.14120685 0.031054892 -0.12946764
0.12237772 -0.1830356 0.052225534 -0.11823815 0.054130856 0.016645888 -0.016843053 -0.024273835
-0.29581457 -0.3343949 0.091676906 -0.33155513 -0.04704851 -0.14703293 -0.0016058887 -0.08792766
-0.039084148 0.07796527 -0.17199005 -0.08987663 0.052873876 0.14209773 0.26756343 -0.16742443
0.21394415 0.099042825 -0.36548796 -0.095831275 -0.3081914 0.05964127 -0.25084955 -0.34054446
-0.12512788 -0.15302601 -0.028445251 0.0137887485 -0.23549373 -0.20535697 -0.13861036 -0.2872619
-0.25237778 0.0028600674 -0.05608644 -0.092713825 -0.08957054 -0.27382588 -0.1750314 -0.22052962
-0.3083075 -0.30578852 -0.051187735 -0.35488412 -0.21826184 -0.24185611 0.013700388 0.074474
-0.23115323 -0.20050545 0.1383493 -0.19142456 -0.3544256 -0.2479917 -0.1878767 0.06330393
-0.04090537 -0.24483395 -0.12985781 0.11209813 -0.037967194 -0.21306354 -0.032794427 -0.21216418
-0.025197871 0.022666804 -0.20035772 -0.40195438 0.09348237 -0.19605626 -0.034405787 -0.28149623
0.0109572485 -0.09192335 -0.3041065 -0.039730188 -0.26878828 -0.022983445 0.16619802 -0.078915164
0.17030928 -0.14796183 -0.16710886 0.062382758 -0.2673391 -0.16334692 -0.2739105 -0.04034266
0.08348926 -0.124495246 0.055208143 -0.066829085 0.14717588 -0.18169183 -0.07378816 -0.11919573
0.073073104 -0.011355034 -0.23827203 0.08492734 -0.15712531 -0.28004482 0.11570395 -0.11971894
-0.06833243 -0.1658147 -0.081073605 -0.21650487 0.007792217 -0.049220007 -0.16085792 0.02900623
-0.09734756 0.082022 0.0465175 -0.18755119 0.17632496 0.034937296 -0.29944867 -0.24912718
-0.1297931 0.13214757 -0.21595661 -0.3188458 -0.052819747 -0.074891426 -0.12475438 0.13439487
-0.18855251 -0.30582747 -0.16870269 -0.26598495 -0.28647125 -0.15041868 0.05416095 -0.09941979
-0.0029095153 -0.09282704 -0.2197775 -0.23231775 -0.17216854 -0.1363804 0.048694566 -0.27989036
-0.21379884 -0.21337281 0.037150037 -0.0413846 -0.26635972 -0.15574084 0.23682591 -0.03236186
-0.25827438 -0.22863802 -0.23201875 0.12073257 -0.18754064 -0.1714065 -0.04090845 -0.006685472
0.043153618 -0.17249641 0.023406634 -0.17012747 -0.09133698 -0.03815311 -0.12380563 -0.35611013
-0.024655098 -0.14440994 -0.09658334 -0.17507033 0.017776618 0.013988417 -0.29687962 -0.16706727
-0.305894 -0.030797765 0.11482914 -0.072544135 0.11674397 -0.11157304 -0.09734205 0.005323187
0.23221658 0.16592444 -0.20477894 0.36382595 0.48489723 -0.36853763 -0.4110577 -0.23531483
-0.43071356 0.30633745 0.45090517 -0.05815873 -0.47283474 0.42816502 0.2605711 -0.15568502
0.092715904 -0.10558224 -0.50218827 0.09245265 0.3938826 -0.3326248 -0.24588911 0.2823903
-0.4444776 -0.6876284 -0.12437902 -0.34150946 0.32134303 -0.42091992 -0.46449122 0.038403448
-0.43226957 -0.4666602 -0.18495229 -0.22783493 -0.23054823 0.42585197 -0.14012095 0.0410243
-0.28429836 0.25527698 -0.49574205 -0.39774135 0.20658249 0.014061975 0.20008528 0.0972073
0.1615585 0.22987497 -0.41473618 -0.27527872 -0.31832957 0.06260593 -0.13275439 0.21632439
00000000: 90f5 80be ae22 89be 97f3 90be 826a ddbd
00000010: df4d eb3d 8798 10be d466 fe3c 2a93 04be
00000020: 2ca1 fa3d af6d 3bbe 71ea 553d d826 f2bd
00000030: 51b8 5d3d f55c 883c 71fa 89bc ecd9 c6bc
00000040: 0275 97be cf35 abbe 1ac1 bb3d 98c1 a9be
00000050: f0b5 40bd cd8f 16be af7c d2ba 6b13 b4bd
00000060: b316 20bd 41ac 9f3d 291e 30be 3d11 b8bd
00000070: 4792 583d 1182 113e 13fe 883e 4f71 2bbe
00000080: 2d14 5b3e f7d6 ca3d 3d21 bbbe 3043 c4bd
00000090: 43cb 9dbe 684a 743d 5a6f 80be d85b aebe
000000a0: 8621 00be dab2 1cbe 0406 e9bc 34ea 613c
000000b0: 4525 71be 1949 52be e0ef 0dbe fe13 93be
000000c0: a937 81be f86f 3b3b e5ba 65bd bfe0 bdbd
000000d0: c270 b7bd e832 8cbe 6e3b 33be 84d2 61be
000000e0: 7bda 9dbe 5090 9cbe 3baa 51bd 5fb3 b5be
000000f0: 0880 5fbe 21a9 77be 9877 603c d385 983d
00000100: 6fb3 6cbe 4d51 4dbe 70ab 0d3e cd04 44be
00000110: 4677 b5be 89f1 7dbe c062 40be 7ea5 813d
00000120: 648c 27bd c0b5 7abe 72f9 04be b493 e53d
00000130: 7d83 1bbd 542d 5abe 7353 06bd 9141 59be
00000140: c46b cebc bcaf b93c 932a 4dbe f7cc cdbe
00000150: af73 bf3d f9c2 48be 15ed 0cbd 4620 90be
00000160: 0886 333c 4f42 bcbd d9b3 9bbe 1fbc 22bd
00000170: 9e9e 89be c747 bcbc d02f 2a3e 469e a1bd
00000180: 8e65 2e3e 4e83 17be 961e 2bbe 1085 7f3d
00000190: ace0 88be 6a44 27be ff3d 8cbe 583e 25bd
000001a0: 6bfc aa3d 5df7 febd ef21 623d b0dd 88bd
000001b0: 46b5 163e 6c0d 3abe 3f1e 97bd e41c f4bd
000001c0: 5aa7 953d 770a 3abc 95fd 73be 63ee ad3d
000001d0: 75e5 20be 0962 8fbe 31f6 ec3d 342f f5bd
000001e0: e0f1 8bbd 54cb 29be eb09 a6bd 74b3 5dbe
000001f0: db55 ff3b eb9a 49bd f0b7 24be 799e ed3c
00000200: 285e c7bd 26fb a73d 2289 3e3d 6b0d 40be
00000210: 888e 343e 691a 0f3d 5651 99be 321b 7fbe
00000220: 7be8 04be b151 073e bb23 5dbe c23f a3be
00000230: 8559 58bd ad60 99bd 397f ffbd cf9e 093e
00000240: e913 41be 6b95 9cbe 66c0 2cbe 2e2f 88be
00000250: 5cac 92be 5b07 1abe dfd7 5d3d 9a9c cbbd
00000260: 91ad 3ebb 1a1c bebd 5a0d 61be b4e4 6dbe
00000270: f34c 30be 4ea7 0bbe f473 473d ca4d 8fbe
00000280: 15ee 5abe 677e 5abe a32a 183d e682 29bd
00000290: 4d60 88be 877a 1fbe 7e82 723e df8d 04bd
000002a0: 8a3c 84be 1620 6abe 5396 6dbe a342 f73d
000002b0: a70a 40be 2f85 2fbe 9e8f 27bd ce11 dbbb
000002c0: d9c1 303d e6a2 30be 45bf bf3c e535 2ebe
000002d0: e20e bbbd 6f46 1cbd ce8d fdbd 1154 b6be
000002e0: 7df9 c9bc 33e0 13be 7ccd c5bd a345 33be
000002f0: 45a0 913c ac2f 653c 9b00 98be af13 2bbe
00000300: 239e 9cbe 984b fcbc 8a2b eb3d 0592 94bd
00000310: 7617 ef3d 6880 e4bd 455b c7bd 216e ae3b
00000320: 2fca 6d3e 19e8 293e 92b1 51be 6547 ba3e
00000330: 7344 f83e f7b0 bcbe 2876 d2be 5ff6 70be
00000340: 7d86 dcbe 43d8 9c3e 0bdd e63e d937 6ebd
00000350: 6517 f2be 7238 db3e 9369 853e e56b 1fbe
00000360: d6e1 bd3d 803b d8bd 698f 00bf d157 bd3d
00000370: fbaa c93e cc4d aabe 5bca 7bbe 7695 903e
00000380: 9192 e3be 6a08 30bf 6dba febd 54da aebe
00000390: 1387 a43e d182 d7be cbd1 edbe ef4c 1d3d
000003a0: 7052 ddbe 16ee eebe 2264 3dbe 8f4d 69be
000003b0: d614 6cbe 4509 da3e de7b 0fbe 1909 283d
000003c0: 8e8f 91be aab3 823e e7d1 fdbe c1a4 cbbe
000003d0: 5c8a 533e 3364 663c 28e3 4c3e 9f14 c73d
000003e0: 976f 253e 5864 6b3e 4d58 d4be 55f1 8cbe
000003f0: 18fc a2be 8a37 803d c4f0 07be 2484 5d3e

lstm.weight_hh_l0 f4 [400, 100]
-0.02500148 0.00779379 0.05188815 0.050221644 -0.22721699 -0.06009875 0.16279806 4.3939217e-05
0.16923225 -0.047489274 -0.13863738 0.04486254 0.03586961 -0.17344594 -0.14943922 0.019381115
-0.057423484 -0.15990613 0.015339887 -0.0050158054 -0.043060362 0.1368398 0.18683468 -0.08791299
0.02475014 0.108591676 0.10378533 0.022372298 -0.17798999 0.21139604 0.2579986 -0.012103182
0.12753111 0.19971502 0.008082274 0.14274615 0.07226101 -0.18417518 -0.08306692 0.009694115
0.11734288 0.028721513 0.08963551 0.14600955 0.042393703 0.114570625 0.003340905 0.16143657
0.12411809 -0.0721144 0.14449257 0.09093304 0.23553047 0.08043904 0.022655897 0.14349909
0.2871451 -0.06519521 0.15879588 -0.07246112 0.1594815 -0.14923525 0.2016951 -0.059982456
-0.098971955 -0.0075502777 0.25651178 -0.12925164 0.07857509 0.1940571 -0.09331254 -0.15455674
0.12029314 -0.18334067 0.116880916 0.030684503 -0.14826436 0.0088820765 0.0100911325 0.015000708
-0.05577569 -0.07281757 -0.18039976 -0.05595798 0.09522046 0.09282142 0.15286505 -0.005630362
-0.09904601 -0.09936375 -0.069787346 0.042610295 0.110659584 0.18331695 0.15202685 0.091518566
0.077736266 0.046783667 0.05719236 0.10779091 -0.046883725 0.15547179 0.17034365 -0.0023376246
-0.26632622 0.13491571 0.1393702 0.11049962 0.19185346 -0.04494417 -0.29282564 -0.08988425
0.06670246 -0.082246706 -0.32102814 0.17245936 0.139002 -0.019380998 0.11980594 -0.13040572
-0.27459234 0.12883264 0.19981119 -0.058162905 0.20659745 0.17686896 0.12168617 0.10376949
-0.19215533 0.31372654 0.09552667 -0.22848567 0.20994167 0.20227963 0.045961324 0.08784405
-0.021252964 -0.29734993 0.055451695 -0.0041615553 0.09078417 0.07417896 0.02595421 0.1913357
0.086131915 0.021479653 -0.09002031 0.13408147 0.24253981 -0.17701095 0.12941499 -0.093423344
0.052006375 0.018455753 0.021231778 0.091633335 0.117533304 0.10051951 0.12871367 -0.15658216
0.37158787 -0.0077980687 0.11081049 -0.2194726 -0.05037793 -0.062330358 0.32940364 -0.17141336
0.2711274 0.14373575 -0.026339294 -0.25439894 0.15871105 -0.12064933 0.014421818 0.08037107
-0.09062062 0.053078417 0.11198761 0.13298751 0.0024539118 -0.1715666 -0.0741917 0.13148338
0.2553194 0.038219284 0.06912481 0.09373578 -0.18314786 -0.14781837 0.10958242 0.020272719
0.20061073 0.50822663 0.24221432 0.009899512 0.18297625 -0.16994867 -0.07362912 0.18171605
-0.09694235 -0.20874137 0.097791724 -0.1902737 -0.16242288 0.15933344 0.07854635 0.024860732
0.26916638 0.029828908 -0.1913375 0.037732664 0.07659592 -0.038523566 -0.025217745 -0.013916441
-0.110757425 -0.1349344 0.16678363 -0.05197819 0.012011433 0.041799694 0.04249244 0.043508336
0.14304122 0.1227647 -0.035563927 0.026690722 -0.05579391 0.12828316 0.21579474 -0.0077738985
0.04795088 0.055550877 0.0765318 0.1495849 0.043202545 -0.09723145 0.0140293 0.17621973
0.012124762 -0.0006530649 0.27452475 0.18493049 -0.23825729 0.054443676 -0.102178775 -0.038791504
-0.13396488 -0.30906224 0.13081782 0.3241712 0.16082565 -0.09080667 0.09863728 -0.017037543
00000000: e7cf ccbc 0d63 ff3b ab88 543d 36b5 4d3d
00000010: 92ab 68be 1b2a 76bd 89b4 263e 604b 3838
00000020: 384b 2d3e 1d84 42bd f5f6 0dbe c8c1 373d
00000030: 03ec 123d d09b 31be 9806 19be 25c5 9e3c
00000040: e334 6bbd 6fbe 23be 2654 7b3c a05b a4bb
00000050: 1060 30bd bc1f 0c3e 9751 3f3e ba0b b4bd
00000060: cec0 ca3c 5065 de3d 678d d43d 1c46 b73c
00000070: 0243 36be 3478 583e 6418 843e 6d4c 46bc
00000080: 8497 023e 1882 4c3e 846b 043c 0c2c 123e
00000090: 95fd 933d 6b98 3cbe fd1e aabd 11d4 1e3c
000000a0: 7751 f03d 6149 eb3c d392 b73d 8783 153e
000000b0: 05a5 2d3d 01a4 ea3d 16f3 5a3b a14f 253e
000000c0: a031 fe3d b7b0 93bd dcf5 133e 1a3b ba3d
000000d0: e62e 713e 39bd a43d dc98 b93c 6df1 123e
000000e0: af04 933e 1185 85bd 639b 223e 7f66 94bd
000000f0: 1e4f 233e 20d1 18be 2989 4e3e 2ab0 75bd
00000100: cfb1 cabd 5268 f7bb 8355 833e 8b5a 04be
00000110: faeb a03d e8b6 463e a51a bfbd 1f44 1ebe
00000120: 405c f63d a8bd 3bbe 435f ef3d 115e fb3c
00000130: 9dd2 17be 2186 113c 4755 253c 88c5 753c
00000140: 0d75 64bd 6121 95bd b7ba 38be 3234 65bd
00000150: f202 c33d 2819 be3d a888 1c3e e67e b8bb
00000160: a2d8 cabd 397f cbbd abec 8ebd 2288 2e3d
00000170: 7ea1 e23d 70b7 3b3e edac 1b3e 166e bb3d
00000180: 3134 9f3d 3ba0 3f3d 8942 6a3d 7bc1 dc3d
00000190: 2609 40bd ff33 1f3e 916e 2e3e d532 19bb
000001a0: e95b 88be 5827 0a3e 10b7 0e3e a04d e23d
000001b0: 3c75 443e 6117 38bd 3eed 95be 3c15 b8bd
000001c0: 4d9b 883d f670 a8bd cd5d a4be 3099 303e
000001d0: 8a56 0e3e e6c4 9ebc d15c f53d 1489 05be
000001e0: 5e97 8cbe b4ec 033e 4e9b 4c3e 3a3c 6ebd
000001f0: 488e 533e 231d 353e 9936 f93d 1985 d43d
00000200: 5ec4 44be c4a0 a03e 7da3 c33d 26f8 69be
00000210: f3fa 563e 6422 4f3e f141 3c3d 95e7 b33d
00000220: b21a aebc 403e 98be 5121 633d a85d 88bb
00000230: 0ded b93d 23eb 973d ec9d d43c 81ed 433e
00000240: ee65 b03d 19f6 af3c 915c b8bd a74c 093e
00000250: 5b5c 783e 5c42 35be 5d85 043e bd54 bfbd
00000260: a304 553d 8530 973c 44ee ad3c 42aa bb3d
00000270: 4db5 f03d 2cdd cd3d 84cd 033e 1357 20be
00000280: c440 be3e f186 ffbb 9cf0 e23d 6dbd 60be
00000290: 1759 4ebd 1e4e 7fbd 98a7 a83e fc86 2fbe
000002a0: 36d1 8a3e 772f 133e 81c5 d7bc 9440 82be
000002b0: 2685 223e ff16 f7bd 7d49 6c3c 9699 a43d
000002c0: 4e97 b9bd c168 593d c359 e53d e12d 083e
000002d0: cfd1 203b 28af 2fbe d1f1 97bd 94a3 063e
000002e0: 39b9 823e d38b 1c3d 4f91 8d3d 8bf8 bf3d
000002f0: 1d8b 3bbe b35d 17be bf6c e03d f912 a63c
00000300: e66c 4d3e 241b 023f 0807 783e 9031 223c
00000310: 205e 3b3e 0607 2ebe ddca 96bd c613 3a3e
00000320: b689 c6bd 4cc0 55be 0747 c83d 1cd7 42be
00000330: 2f52 26be 4e28 233e e9dc a03d bca8 cb3c
00000340: 2dd0 893e c15b f43c faed 43be 918d 1a3d
00000350: 52de 9c3d e3ca 1dbd 7295 cebc c901 64bc
00000360: cad4 e2bd 3e2c 0abe 54c9 2a3e 15e7 54bd
00000370: 9acb 443c 2836 2b3d 8e0c 2e3d cc35 323d
00000380: 6679 123e 0f6c fb3d 7bab 11bd 80a6 da3c
00000390: 2888 64bd a95c 033e 4cf9 5c3e 30bc febb
000003a0: 2468 443d 5189 633d b4bc 9c3d c92c 193e
000003b0: 27f5 303d 4821 c7bd 26db 653c f272 343e
000003c0: f0a6 463c 7232 2bba 828e 8c3e 6b5e 3d3e
000003d0: b8f9 73be 5500 5f3d 1b43 d1bd d7e3 1ebd
000003e0: 172e 09be 683d 9ebe 1bf5 053e c4f9 a53e
000003f0: 7baf 243e d9f8 b9bd 5802 ca3d 5192 8bbc

lstm.bias_ih_l0 f4 [400]
-0.3627114 -0.30233487 -0.41529647 -0.20137876 -0.074256726 -0.20547366 -0.20594083 -0.39251047
-0.045990475 -0.24817427 -0.023567159 -0.45643336 0.03396378 0.024685211 -0.26751605 -0.37048128
-0.47147447 -0.46779847 -0.08612953 -0.604753 -0.2259665 -0.21841253 -0.2673552 -0.42543256
-0.13446046 0.18391015 -0.32584563 -0.1784058 -0.15374072 -0.009913905 0.08858026 -0.49173692
-0.13611567 -0.012258976 -0.45215836 -0.33100545 -0.25298443 -0.056343064 -0.4079171 -0.5221032
-0.5093343 -0.30944535 0.22608937 -0.037575874 -0.45078617 -0.30375645 -0.29164827 -0.2852829
-0.5290892 -0.30563033 -0.1912572 -0.259756 -0.19949536 -0.3158032 -0.3423423 -0.3574357
-0.3214918 -0.44862652 0.046644833 -0.38047144 -0.41926938 -0.5356747 -0.09162416 -0.07358425
-0.49795794 -0.5172442 -0.04967192 -0.21616341 -0.53177595 -0.34317896 -0.31459227 0.037704475
-0.175367 -0.60576767 -0.20251456 -0.18314183 -0.08484174 -0.48062843 -0.07834514 -0.42958757
-0.10405955 -0.023620289 -0.2169481 -0.40332565 -0.009286997 -0.31543776 -0.10678472 -0.3968673
-0.092199355 -0.13162033 -0.44407678 -0.26326114 -0.29207397 -0.24999975 -0.20672297 -0.21080214
0.003147615 -0.4190259 -0.3836789 -0.061792254 -0.45299178 -0.32449928 -0.2427957 -0.14374653
0.039220214 -0.20425981 -0.10976919 -0.28450704 -0.037633974 -0.42383337 0.003619994 -0.3577943
-0.017634 -0.02863138 -0.13002518 -0.26790214 -0.3972149 -0.34564444 0.029943345 -0.5669955
-0.19427942 -0.22641093 -0.1798035 -0.3826103 -0.08432127 0.21727666 -0.30551243 -0.22281665
-0.21895264 -0.038514543 -0.028722683 -0.40207586 -0.18303548 -0.10257356 -0.37107104 -0.34088105
-0.33824554 -0.17975122 -0.3084645 -0.3160742 -0.2839824 -0.2693435 0.13247406 -0.19069342
-0.38821772 -0.3219505 -0.35367975 -0.3223218 -0.31970695 -0.19185828 -0.15314941 -0.27957344
-0.18354717 -0.359454 -0.38534608 -0.34433743 -0.27419832 -0.29986018 -0.071239054 -0.37923983
-0.3945298 -0.36675328 -0.20804137 -0.12272755 -0.517123 -0.33098903 -0.16553247 -0.20147666
-0.516276 -0.33706507 -0.26971486 -0.15201716 -0.11974079 -0.4575483 -0.28424856 -0.19782338
-0.15921116 -0.34562162 0.032655913 -0.25928694 -0.18285525 -0.14168635 -0.34726435 -0.50865996
-0.19149326 -0.29373774 -0.056758936 -0.2637011 -0.016637174 -0.1598238 -0.39607698 -0.20679991
-0.39587343 -0.13189296 -0.17444892 -0.19433074 -0.18074626 -0.29045916 -0.3234028 -0.043234795
0.08095983 -0.053017087 0.041864216 -0.06668518 -0.09726488 -0.007277309 0.03228465 -0.023447568
0.007218601 -0.023273798 -0.03525964 -0.0039688023 0.050665956 -0.08762513 0.04574657 -0.055083245
-0.055185582 -0.026958765 0.052209873 -0.0017825469 -0.05372539 0.110314794 0.074816816 -0.05802649
0.030983122 -0.013755859 0.07745496 -0.022494527 -0.007915857 0.055600174 0.08857941 -0.07374067
0.05440174 -0.021197077 0.023114994 0.056091376 0.015405551 -0.093056984 0.024684187 0.051254906
0.07494601 -0.068640605 -0.039046947 -0.05365014 -0.03768286 -0.07444794 -0.031184517 0.008956129
-0.0770322 -0.09045222 0.009870248 0.09637237 -0.014977451 0.07553614 0.04608325 -0.017876385
00000000: 4fb5 b9be a3cb 9abe bda1 d4be 3c36 4ebe
00000010: e913 98bd b067 52be 27e2 52be 22f7 c8be
00000020: 8260 3cbd 6521 7ebe ea0f c1bc a2b1 e9be
00000030: 9b1d 0b3d a438 ca3c ddf7 88be b9af bdbe
00000040: 1a65 f1be 4883 efbe ae64 b0bd 18d1 1abf
00000050: c363 67be 89a7 5fbe c8e2 88be 4cd2 d9be
00000060: 01b0 09be f152 3c3e 3dd5 a6be 03b0 36be
00000070: 356e 1dbe ee6d 22bc 9169 b53d f1c4 fbbe
00000080: e861 0bbe dfd9 48bc 4d81 e7be 8c79 a9be
00000090: 2d87 81be fcc7 66bd 83da d0be 8ea8 05bf
000000a0: bc63 02bf 9f6f 9ebe f983 673e 29e9 19bd
000000b0: 72cd e6be f785 9bbe ec52 95be 9a10 92be
000000c0: 6472 07bf 947b 9cbe edd8 43be bdfe 84be
000000d0: 8348 4cbe f5b0 a1be 7d47 afbe d001 b7be
000000e0: 939a a4be 60b2 e5be a70e 3f3d 27cd c2be
000000f0: 7aaa d6be fa21 09bf 73a5 bbbd 57b3 96bd
00000100: 58f4 febe 1e6a 04bf c874 4bbd f159 5dbe
00000110: 7822 08bf 27b5 afbe 3d12 a1be 0270 1a3d
00000120: 6893 33be 9713 1bbf fa5f 4fbe 8889 3bbe
00000130: 82c1 adbd ee14 f6be 6b73 a0bd e7f2 dbbe
00000140: 2c1d d5bd 567f c1bc a527 5ebe b380 cebe
00000150: 7d28 18bc 0f81 a1be f3b1 dabd 3132 cbbe
00000160: 04d3 bcbd 7bc7 06be 085e e3be 2aca 86be
00000170: b88a 95be efff 7fbe 30af 53be 84dc 57be
00000180: 3748 4e3b 908a d6be 9071 c4be e019 7dbd
00000190: 8aee e7be c524 a6be 709f 78be 4a32 13be
000001a0: 60a5 203d 7c29 51be abce e0bd e8aa 91be
000001b0: 1526 1abd b000 d9be 6c3d 6d3b d130 b7be
000001c0: 2e75 90bc 5b8c eabc 5225 05be 782a 89be
000001d0: c05f cbbe 4ff8 b0be bf4b f53c 9e26 11bf
000001e0: 2ff1 46be 44d8 67be 691e 38be 7fe5 c3be
000001f0: a1b0 acbd c67d 5e3e 206c 9cbe 0c2a 64be
00000200: 1f35 60be 6dc1 1dbd d54b ebbc e3dc cdbe
00000210: a76d 3bbe 1612 d2bd 06fd bdbe f687 aebe
00000220: 852e adbe b410 38be 0fef 9dbe 7ad4 a1be
00000230: 2466 91be 64e7 89be 48a7 073e 2345 43be
00000240: 79c4 c6be b2d6 a4be 8315 b5be 5d07 a5be
00000250: a1b0 a3be 7f76 44be 33d3 1cbe 4024 8fbe
00000260: caf3 3bbe 5b0a b8be 154c c5be ff4c b0be
00000270: b963 8cbe 4687 99be c8e5 91bd b92b c2be
00000280: cfff c9be 16c7 bbbe cc08 55be 9558 fbbd
00000290: 2c62 04bf 6577 a9be 5881 29be e64f 4ebe
000002a0: aa2a 04bf cb93 acbe 1118 8abe 63aa 1bbe
000002b0: a93a f5bd c543 eabe 0789 91be 3692 4abe
000002c0: 4008 23be 51f5 b0be 35c2 053d 42c1 84be
000002d0: 683e 3bbe 3a16 11be a2cc b1be 8a37 02bf
000002e0: cf16 44be cb64 96be 0f7c 68bd d503 87be
000002f0: af4a 88bc daa8 23be 9aca cabe 5bc3 53be
00000300: ecaf cabe f30e 07be bda2 32be a3fe 46be
00000310: 8c15 39be 10b7 94be 0d95 a5be f816 31bd
00000320: 44ce a53d 7228 59bd d079 2b3d 3d92 88bd
00000330: cf32 c7bd 7e76 eebb e93c 043d 1d15 c0bc
00000340: 048a ec3b b1a8 bebc 6a6c 10bd ba0c 82bb
00000350: 1b87 4f3d ce74 b3bd c160 3b3d f89e 61bd
00000360: 470a 62bd a1d8 dcbc 05da 553d 59a4 e9ba
00000370: 280f 5cbd b9ec e13d 8f39 993d 2fad 6dbd
00000380: 51d0 fd3c 4160 61bc b5a0 9e3d 7146 b8bc
00000390: 83b1 01bc 02bd 633d 1f69 b53d 5905 97bd
000003a0: 5cd4 5e3d 7ea5 adbc a85b bd3c 12c0 653d
000003b0: 9067 7c3c a994 bebd 7e36 ca3c aaf0 513d
000003c0: 4b7d 993d 7293 8cbd b1ef 1fbd 40c0 5bbd
000003d0: 5859 1abd 2978 98bd ac76 ffbc babc 123c
000003e0: 0fc3 9dbd 033f b9bd d2b6 213c e15e c53d
000003f0: fc63 75bc b1b2 9a3d cac1 3c3d 7f71 92bc

lstm.bias_hh_l0 f4 [400]
-0.46644345 -0.4894743 -0.26574615 -0.08270328 -0.033306953 -0.20196514 -0.24527594 -0.23455442
-0.032213926 -0.38242334 0.030401947 -0.39290673 -0.046125278 -0.10542602 -0.14978985 -0.3577744
-0.39053595 -0.38312256 -0.004902782 -0.4738399 -0.083478525 -0.34695902 -0.29628658 -0.309316
-0.02783499 0.12738524 -0.39856955 -0.1692544 -0.12621994 -0.02794362 -0.03547439 -0.39385664
-0.12858325 0.032263722 -0.43884876 -0.3097855 -0.30614468 -0.13626681 -0.26202527 -0.5166711
-0.41413057 -0.3825211 0.2331302 -0.08622538 -0.5242881 -0.30969757 -0.40038204 -0.20604599
-0.39461967 -0.24733342 -0.082211 -0.3375853 -0.28800565 -0.47707048 -0.39383546 -0.40358573
-0.38031498 -0.31383103 -0.03938015 -0.37834984 -0.5104612 -0.5631323 -0.22012363 -0.08195879
-0.4822381 -0.51955414 -0.11257674 -0.31180862 -0.5016704 -0.20634896 -0.32577923 -0.07921189
-0.1611071 -0.5320997 -0.21549909 -0.10390539 -0.17114493 -0.38935602 -0.072575696 -0.26873368
-0.12576024 -0.16648015 -0.27504072 -0.5456886 -0.16711913 -0.37901133 -0.03919928 -0.4662736
-0.036280666 -0.118031174 -0.43010914 -0.071779735 -0.43060336 -0.27404538 -0.20393008 -0.24157631
-0.10588174 -0.38756472 -0.382524 -0.1353907 -0.40538448 -0.37040058 -0.23314953 -0.1994079
0.0396291 -0.20076382 -0.14754115 -0.41935197 -0.19680457 -0.37787664 -0.095343485 -0.42873642
-0.06019653 0.015653102 -0.21080674 -0.30370408 -0.38650787 -0.43014857 -0.12089203 -0.44578546
-0.22089647 -0.19961038 -0.21507998 -0.34557655 -0.2062177 0.21280721 -0.30750367 -0.14744684
-0.30773377 -0.06469456 0.041306898 -0.43102238 0.0023013148 -0.080351755 -0.42643684 -0.21571441
-0.31328896 -0.16417149 -0.2778467 -0.4823485 -0.34713513 -0.25120485 0.043126084 -0.017645985
-0.3505253 -0.38964728 -0.35868785 -0.34271476 -0.35869867 -0.32796317 -0.10205262 -0.14964738
-0.16864608 -0.43446693 -0.35847536 -0.39534086 -0.34775916 -0.35254788 -0.08779015 -0.30671975
-0.38639888 -0.53942364 -0.22133994 -0.12928843 -0.38824624 -0.34563768 0.015088496 -0.26735362
-0.5683834 -0.2250452 -0.4245684 -0.0021865438 -0.094350375 -0.5424069 -0.3378782 -0.19774848
-0.13797 -0.32615426 -0.13913783 -0.2521887 -0.025567114 -0.07563955 -0.24784264 -0.49490517
-0.13121888 -0.2166722 -0.19239049 -0.3548983 -0.038034968 -0.2696851 -0.45974743 -0.2908483
-0.40158123 -0.18643138 -0.19597836 -0.217432 -0.0553579 -0.38954902 -0.3271689 -0.06929395
-0.013796215 0.063804656 0.10096248 -0.043364312 0.03231571 0.07366338 0.043482278 0.031137837
0.05882914 0.057374556 -0.07124144 -0.0694615 0.040228616 -0.04362486 -0.06836127 0.02290332
0.074228704 -0.012615173 -0.06125484 -0.0006996823 -0.03278376 0.0022696117 -0.093996935 -0.069930404
0.07481044 -0.08205743 0.03210635 0.09113047 -0.0024933312 -0.0128650535 0.028077913 0.01912786
0.052367434 0.14536043 0.049163673 0.036635596 0.05403613 0.0071669538 -0.050423793 0.04236299
-0.0052553713 0.05902197 -0.049674015 0.12898383 -0.07031847 0.037395883 0.09530471 -0.022728797
-0.030211462 0.040492557 0.06878437 -0.027655464 0.1072151 -0.09340456 0.08970069 -0.013967311
00000000: add1 eebe 609c fabe e10f 88be 5660 a9bd
00000010: df6c 08bd f3cf 4ebe 9e29 7bbe 092f 70be
00000020: c0f2 03bd fecc c3be 810d f93c 122b c9be
00000030: dced 3cbd 99e9 d7bd 8362 19be 352e b7be
00000040: 54f4 c7be a428 c4be 84a7 a0bb 259b f2be
00000050: caf6 aabd 9da4 b1be e0b2 97be ab5e 9ebe
00000060: 3406 e4bc 4771 023e 4f11 ccbe 0751 2dbe
00000070: cd3f 01be 05ea e4bc 984d 11bd 94a7 c9be
00000080: 54ab 03be f726 043d c9b0 e0be 349c 9ebe
00000090: ffbe 9cbe 8789 0bbe 2d28 86be 8f44 04bf
000000a0: ec08 d4be ced9 c3be afb9 6e3e ef96 b0bd
000000b0: bf37 06bf ae90 9ebe e0fe ccbe b8fd 52be
000000c0: 970b cabe f944 7dbe 3e5e a8bd fbd7 acbe
000000d0: 7a75 93be 9542 f4be cda4 c9be caa2 cebe
000000e0: a5b8 c2be 76ae a0be 154d 21bd 12b7 c1be
000000f0: 96ad 02bf 7029 10bf 1768 61be 03da a7bd
00000100: eae7 f6be 8001 05bf a28e e6bd 61a5 9fbe
00000110: 796d 00bf 244d 53be 89cc a6be d839 a2bd
00000120: 42f9 24be b037 08bf cbab 5cbe 59cc d4bd
00000130: 9e40 2fbe ac59 c7be 91a2 94bd 7697 89be
00000140: 4bc7 00be c679 2abe 23d2 8cbe 40b2 0bbf
00000150: 4721 2bbe c60d c2be 6d8f 20bd 6abb eebe
00000160: 099b 14bd 54ba f1bd 4437 dcbe 4101 93bd
00000170: 0b78 dcbe ad4f 8cbe 0cd3 50be c85f 77be
00000180: 87d8 d8bd e26e c6be 30da c3be dca3 0abe
00000190: 8e8e cfbe 25a5 bdbe c0be 6ebe 9631 4cbe
000001a0: 2052 223d 0895 4dbe 0715 17be 4db5 d6be
000001b0: 2387 49be 0c79 c1be 7243 c3bd 5783 dbbe
000001c0: a390 76bd ef3a 803c b9dd 57be 1a7f 9bbe
000001d0: 5ce4 c5be 6f3c dcbe 3e96 f7bd fe3d e4be
000001e0: af32 62be aa66 4cbe ed3d 5cbe 69ef b0be
000001f0: bc2a 53be 22ea 593e 1f71 9dbe 4efc 16be
00000200: 488f 9dbe 957e 84bd 6c31 293d f7ae dcbe
00000210: a8d1 163b 768f a4bd ee55 dabe 3de4 5cbe
00000220: 6967 a0be 921c 28be ec41 8ebe 62f6 f6be
00000230: b2bb b1be ec9d 80be faa4 303d 508e 90bc
00000240: 0d78 b3be d97f c7be efa5 b7be 4f78 afbe
00000250: 5aa7 b7be caea a7be f700 d1bd 2a3d 19be
00000260: 8fb1 2cbe 7372 debe 158a b7be 1e6a cabe
00000270: 7d0d b2be 2881 b4be 52cb b3bd 5f0a 9dbe
00000280: 13d6 c5be ab17 0abf f0a6 62be 3064 04be
00000290: 36c8 c6be 6cf7 b0be bd35 773c 93e2 88be
000002a0: 9381 11bf 4072 66be 0861 d9be 1e4c 0fbb
000002b0: c53a c1bd 2edb 0abf 5ffe acbe 947e 4abe
000002c0: 0248 0dbe b1fd a6be 267a 0ebe e11e 81be
000002d0: 2072 d1bc e9e8 9abd 76ca 7dbe 3664 fdbe
000002e0: 3e5e 06be 51df 5dbe 0302 45be 3bb5 b5be
000002f0: 8eca 1bbd 2a14 8abe 0464 ebbe 12ea 94be
00000300: 0e9c cdbe dee7 3ebe 8dae 48be 7fa6 5ebe
00000310: f7be 62bd f872 c7be af82 a7be fde9 8dbd
00000320: 8509 62bc 04ac 823d 6bc5 ce3d c79e 31bd
00000330: 7a5d 043d d4dc 963d 791a 323d c714 ff3c
00000340: d3f6 703d 9501 6b3d 08e7 91bd d541 8ebd
00000350: c3c6 243d fbaf 32bd fe00 8cbd be9f bb3c
00000360: 3805 983d dfaf 4ebc 5be6 7abd e26a 37ba
00000370: 4448 06bd c4bd 143b 7781 c0bd ac37 8fbd
00000380: 3736 993d ba0d a8bd f381 033d 9da2 ba3d
00000390: 2867 23bb f2c7 52bc a703 e63c 08b2 9c3c
000003a0: 3c7f 563d 5dd9 143e d95f 493d 350f 163d
000003b0: fd54 5d3d c4d8 ea3b 2e89 4ebd d184 2d3d
000003c0: 4035 acbb 05c1 713d fb76 4bbd 5614 043e
000003d0: 2103 90bd 6d2c 193d 1e2f c33d be31 babc
000003e0: 077e f7bc 86db 253d d2de 8c3d b68d e2bc
000003f0: 9793 db3d e44a bfbd ffb4 b73d 26d7 64bc

linear.weight f4 [1, 100]
0.038518604 0.05961914 -0.040744696 0.13125288 0.18572818 -0.09085352 -0.14680089 -0.07971026
-0.15179995 0.049420245 0.16151956 0.024629507 -0.19805494 0.1489409 0.13028754 -0.11102317
-0.03796025 0.05794189 -0.18312147 0.007192452 0.11879665 -0.07041172 -0.10710787 0.059270762
-0.15875377 -0.30732322 -0.08372653 -0.08011503 0.12004757 -0.15521212 -0.20665315 0.052584484
-0.1516352 -0.17960067 0.0047795265 -0.077644154 -0.0086160535 0.11951077 -0.0824519 0.014064441
-0.036378972 0.05491211 -0.25591844 -0.16000664 0.057729386 -0.054019447 0.0453906 -0.028578797
-0.044601522 0.12617052 -0.14992268 -0.120213374 -0.124143 -0.047676034 -0.0009104355 0.010597431
-0.0698197 0.073226735 -0.2001602 -0.02600938 -0.105774134 0.062055018 -0.11582513 0.15792224
0.029413415 0.04394569 -0.17527317 0.08144028 -0.055623457 -0.12789279 0.053178757 0.16610642
-0.10999146 -0.04440306 0.06272022 -0.15673414 0.17105569 -0.035630904 -0.15974054 -0.016743788
-0.1518645 0.15562221 0.055614796 0.016994206 -0.16198254 -0.050805263 -0.1478276 -0.002431001
0.1968972 0.105606906 0.03092292 0.11445173 -0.029485289 -0.18601683 -0.14723867 -0.12646483
-0.17261842 0.016628837 0.08808241 -0.1712855
00000000: afc5 1d3d 3333 743d e9e3 26bd 2867 063e
00000010: 872f 3e3e 6911 babd f952 16be 223f a3bd
00000020: 7271 1bbe e26c 4a3d 6265 253e d2c3 c93c
00000030: eace 4abe f783 183e 196a 053e 1e60 e3bd
00000040: 357c 1bbd 7a54 6d3d 3284 3bbe a9ae eb3b
00000050: a84b f33d 0534 90bd 5f5b dbbd e6c5 723d
00000060: 5990 22be 7859 9dbe d178 abbd 5913 a4bd
00000070: 80db f53d edef 1ebe e29c 53be d462 573d
00000080: 4246 1bbe 3de9 37be 939d 9c3b e603 9fbd
00000090: 592a 0dbc 10c2 f43d 8bdc a8bd 8b6e 663c
000000a0: 1e02 15bd 85eb 603d be07 83be c8d8 23be
000000b0: a675 6c3d 7f43 5dbd 7eeb 393d 151e eabc
000000c0: 16b0 36bd d832 013e 5585 19be 6e32 f6bd
000000d0: af3e febd f247 43bd 4baa 6eba d9a0 2d3c
000000e0: a2fd 8ebd e6f7 953d ccf6 4cbe a011 d5bc
000000f0: 1ca0 d8bd 672d 7e3d ba35 edbd 5eb6 213e
00000100: 67f4 f03c 6500 343d cf7a 33be 29ca a63d
00000110: 6cd5 63bd 54f6 02be f8d1 593d cd17 2a3e
00000120: 3443 e1bd fcdf 35bd 7573 803d ea7e 20be
00000130: 3929 2f3e b6f1 11bd 0693 23be 452a 89bc
00000140: 5e82 1bbe 6e5b 1f3e 57cc 633d 6f37 8b3c
00000150: c0de 25be 2e19 50bd 1e60 17be 6e51 1fbb
00000160: 6b9f 493e 6f48 d83d 1052 fd3c ab65 ea3d
00000170: 228b f1bc 327b 3ebe bcc5 16be ff7f 01be
00000180: e2c2 30be 3339 883c 8d64 b43d 7765 2fbe
